model/model.pt (torch, 17811 bytes, 4 tensors)

weight f4 [256, 11]
00000000: 3494 a33e 3cbf e7be b22c e4bd 82c7 11bf
00000010: 116c 8e3e 8618 703d 8764 80bd d630 f9bd
00000020: 4c2b babe b1f6 883e 3afc ae3d dc8f 73be
00000030: a264 433e 1dda 0abe cda5 553e c6a9 573e
00000040: 0437 813d ef37 113e ae7d 41be 8698 f2bd
00000050: 2b7c 94be ce92 88be 6eba 1dbe 20cb 873d
00000060: c6d3 82be 081f 91be 45cb 07be 3f49 ab3c
00000070: 8150 203e 2c9a 92bd 2927 143d 2c57 84be
00000080: 1a23 29bd 3cd8 d1be 47a5 4a3d 3bf6 99bd
00000090: 8206 91be 011e 88be a5b3 a43e 35fe 7f3e
000000a0: 4a04 c43d e1db 9bbe 43b6 98be 4fed 0c3e
000000b0: d6a2 df3d 1de5 bcbe 6f30 35bc c60d 423e
000000c0: 8928 63be faa4 703e 58db 6c3d e141 03bf
000000d0: 5813 17bf 550c 9abd e9a9 133c e688 94be
000000e0: e9ae 873e 325e a23e 982a 2fbe 75bb d13d
000000f0: c045 6a3e 2c9b 6e3e c881 533e 4792 313e
00000100: 556e dfbd 02c5 493e d3b4 8abd 7aad 0e3e
00000110: 9d04 88be 3c54 7f3d 4607 623e bda8 c03e
00000120: f9d9 0ebe 4a7f 023e 287e 1fbe a7f2 94be
00000130: d512 80be eaab 963e f446 93be 1a41 80bc
00000140: b4ba 19be 8b9b 56be 690a 5dbe 0efe 2cbd
00000150: 62ac 463c 227f c3bd db63 293e 086a 5abe
00000160: 0425 063d 6292 d5be 292c d6bd 5aa0 cabe
00000170: 35c7 10be df4c 8dbd 2310 8dbe 1448 d63c
00000180: 4944 11be 3857 52bd 6c5f 393d 29a2 253e
00000190: aca1 89be 5dc0 f0be 6723 a2be 6f99 ba3e
000001a0: b917 82be f52d ba3b b860 c1be c941 64bd
000001b0: 81a2 343e a543 933e 92b2 54be b7a3 9e3e
000001c0: 01e2 e1be 3695 673d 71b7 a33d a065 b33e
000001d0: 2c10 793e dbab b33d ffd5 78bc 0822 bcbe
000001e0: aac4 97bd a5fd 15bf 9440 acbe fd78 30bf
000001f0: e551 a2bd ff25 683d c83b 083e d759 ebbd
00000200: cdca 0bbf 7792 10bf 9cca 4c3d f179 b33d
00000210: f743 5dbe dc41 be3d d577 eb3d 6c64 d73c
00000220: 920d 783d b40c b5bc df78 1abd bf39 243d
00000230: e892 1f3d 66a5 18be d95e 41be da24 883d
00000240: 3991 e63e 8f88 4b3e 272e 0ebe 3a64 423d
00000250: 270e e4be 26bd 37be 7580 813d d2ab 563d
00000260: 76f9 8cbd 8f11 6b3d e20a 173f a6e9 f2be
00000270: 7535 023e c84e d6bd 6e17 183e b2cd ad3c
00000280: 153b b33d f01d 9bbe bc06 bebd babe 31be
00000290: 6cb4 ff3d 8fec c83e ead4 8d3e bd1e 1fbf
000002a0: d4a3 943e 480f e03d 72ec a13c eb5a e33d
000002b0: d865 443e 7c4c a63b 6545 103e ebce 1b3d
000002c0: 0830 c63e d27f 12bf f92e a43d e41e 7f3e
000002d0: 4575 3e3d 7421 623d 474f 04be 4fd8 c63d
000002e0: a9be 0a3d f7f5 38be b960 1fbe fcef fe3d
000002f0: 488f f83c 48db e73d 184b 7fbe 5a9a bebd
00000300: 225d c8bd e781 333c b89b 3e3d 2bf9 2e3a
00000310: 946a afbe 9214 a8bd c251 7abe 288b abbe
00000320: a91c a63d 872f 07be 6a21 b3b9 5b99 433e
00000330: 98bd d93b ae3d 58be 09f3 17be f764 b4be
00000340: 3cdc 0dbe 2ece ab3e 1c65 a33e 5ec5 323b
00000350: 629e c33b e767 93bd 2f8c 4abe e4a3 833c
00000360: a5ae 693e 6d4c 573e cf18 b73d 557a 973d
00000370: 9474 853e 5fd6 aebe f5c5 37be 4d20 5f3e
00000380: 7ece 86bd 5213 19bd 8d00 95be 95de 0a3e
00000390: 3d16 f5bd ae42 b9be 0bec 863d 2dc4 113f
000003a0: f5a3 94be 8d13 0e3e a12d 2abe 9dc4 97bc
000003b0: 85b7 a0be 2e00 a23d 64cf 833d 7614 98be
000003c0: 2c1d aa3d 8383 8abd f664 53be 003c 90be
000003d0: c852 9fbe c4a8 6bbe 417a ccbd ba0a 1a3d
000003e0: 9a01 06bd 9e28 d2be 9d9c 81be a96e 71be
000003f0: 3060 24bc 5848 a6be d53d 0abe ee18 a23e
0.31949008 -0.45263088 -0.111413375 -0.5694505 0.27816823 0.058617137 -0.06269174 -0.12167518
-0.36361158 0.2675071 0.08544202 -0.23785347 0.19081357 -0.13559766 0.20864029 0.21060857
0.063093215 0.14181493 -0.18895599 -0.11845498 -0.29000983 -0.26674503 -0.15403149 0.0663054
-0.25552195 -0.28343987 -0.13261135 0.02090895 0.1565571 -0.07158312 0.03617016 -0.25847757
-0.04129324 -0.40985286 0.049474027 -0.07517668 -0.28325278 -0.2658539 0.32168308 0.24999316
0.095711306 -0.30441192 -0.29826555 0.13762401 0.1091973 -0.3689355 -0.011058911 0.18950567
-0.22183432 0.23500434 0.05782637 -0.512724 -0.5901389 -0.075218834 0.009012678 -0.29010695
0.26500633 0.3171249 -0.17106092 0.10240833 0.2287817 0.23301381 0.20654976 0.17340957
-0.10909716 0.19704059 -0.06772771 0.13933364 -0.2656602 0.06233619 0.22073087 0.37628737
-0.13950337 0.1274387 -0.15575469 -0.2909138 -0.25014368 0.29428035 -0.2876507 -0.015656043
-0.15012628 -0.20957772 -0.21586002 -0.042234473 0.01212606 -0.09545733 0.16541998 -0.2132951
0.032750145 -0.41713244 -0.10457642 -0.39575464 -0.14138491 -0.068994276 -0.27551374 0.026157416
-0.14186205 -0.05135271 0.045257017 0.1617514 -0.26881158 -0.47021762 -0.31667635 0.36445186
-0.25408724 0.005681748 -0.37769103 -0.0557268 0.17640115 0.28762546 -0.20771244 0.3098428
-0.4411774 0.056538783 0.07993973 0.3503847 0.24322575 0.08773013 -0.015187739 -0.36744714
-0.074105576 -0.58590156 -0.3364302 -0.68934613 -0.079257764 0.05667686 0.13304055 -0.11491745
-0.54606324 -0.5647349 0.04999791 0.08763493 -0.21607958 0.092899054 0.114974655 0.026293002
0.060559817 -0.022100784 -0.037712928 0.040094133 0.03895846 -0.14906844 -0.18883838 0.06647654
0.4503267 0.19876312 -0.13884793 0.047458865 -0.44542047 -0.17943248 0.06323329 0.052409954
-0.068835184 0.057389792 0.5900098 -0.47443885 0.12715705 -0.10464245 0.14852688 0.021216247
0.087515034 -0.30296278 -0.09278628 -0.17357913 0.124855846 0.3924298 0.27701503 -0.6215628
0.2903124 0.10940415 0.019766066 0.111013256 0.19179475 0.0050750356 0.14088972 0.03803913
0.3870852 -0.5722629 0.08016772 0.24914128 0.046498556 0.055207685 -0.12920867 0.09709226
0.033873234 -0.18062578 -0.1556424 0.12448117 0.03034176 0.113211215 -0.2493099 -0.09306784
-0.09783389 0.010956264 0.046535224 0.0006674702 -0.34261 -0.082070485 -0.2444525 -0.33504605
0.08110935 -0.13201724 -0.00034166436 0.19101469 0.006644916 -0.21117279 -0.14838804 -0.3523328
-0.13853544 0.3355574 0.31913078 0.0027278285 0.0059698084 -0.07197552 -0.19780038 0.01606936
0.22820528 0.21025248 0.08940279 0.0739638 0.26065505 -0.34147927 -0.17946608 0.21789666
-0.06582354 -0.03737194 -0.29101983 0.13561471 -0.11967132 -0.36183685 0.065879904 0.56939965
-0.2903134 0.13874646 -0.16618969 -0.01852637 -0.31390014 0.079101905 0.06436041 -0.2970311
0.08306345 -0.06763365 -0.20643982 -0.28170776 -0.31117845 -0.23013598 -0.099842556 0.037607886
-0.03271637 -0.41046613 -0.253148 -0.2357737 -0.0100326985 -0.3247707 -0.1350015 0.31659645

bias f4 [256]
00000000: 8fee be3d f002 99be 85d5 71be 7259 5dbd
00000010: 0879 fe3d 12a7 09be dcb0 55be b6e9 e5be
00000020: 013e 8ebc 3d01 9cbd 5d5c bcbb c9b0 a53e
00000030: 434e 91be cf17 67be b653 85bd 1d76 b6bd
00000040: 750c 00be 96b7 97be feaf bc3d 482c c4bc
00000050: 1411 4dbe 6dfc 09be 22a0 493e 0010 3cbe
00000060: ecdc 41be 856a 3abe db19 e23d 3ff8 1dbe
00000070: 07bc e03c 50ea 06be a5bf 7dbe b19a 1d3d
00000080: 61d4 d03d 2896 48be ec52 29be fca5 043d
00000090: 71ea 943d ce1c 9b3e 05ef 253c ff5a daba
000000a0: c46c 66be ef7a b9be 1146 e2bc 319f 703d
000000b0: e74a 54bd eb00 523d 07a4 46be 3550 42be
000000c0: 853e 9fbe f86e d43d dd77 13be c734 dcbb
000000d0: cd77 ddbd 917a 10be 1977 f9bd b801 afbc
000000e0: 4038 d6bc 709a 23be b937 1cbe fbe7 97bc
000000f0: 760e 05be b910 f6bd 399a 8dbd 2629 0cbe
00000100: 5fac 82be 829e 3fbe dded e9bd beb3 2c3e
00000110: 3c3d 5d3e e315 213d fc11 b4bd e76b f6bd
00000120: 5419 843d cf18 d1be 5548 99b9 7c42 dabd
00000130: ce02 503e b637 0a3e cf85 85be a07f 96be
00000140: f67a 5cbe 822f 6e3d b322 05bd 2a9a 8dbe
00000150: f362 2b3e 2af0 dd3d bf7b 9b3d 6956 f7bd
00000160: ff9c f9bc ea09 b9bd 8952 d83d 145d a8be
00000170: 4047 97bc f417 d2be 6193 6fbe b712 83be
00000180: 30eb 93be 3542 c6bd 14ea d13c bf15 35bd
00000190: abe8 b43d 72e3 3c3d 0d73 2ebe ff47 843d
000001a0: d5bc 0e3e a754 633d 79d0 2dbe c572 cebd
000001b0: ac60 bfba 5032 ca3d 594a 81be 1757 8cbe
000001c0: e556 82bd cdb2 293d 108c 9c3c 91b9 3c3e
000001d0: 39f0 afbe 663d f83d e4b2 053d dbe5 a3bd
000001e0: a9e4 bd3d 8b91 3abe c553 953e 1445 78bd
000001f0: 57f3 15be f631 6f3d d4f4 e0bd 1131 25bc
00000200: 3b7a 1cbd 2c0b 2a3d 6a35 a9bd b3b0 67bd
00000210: c762 053d 1500 acbd 99ea 9a3c 3f7c b0bd
00000220: 3ee3 d5be a6df 0abe a524 04bf 989c d53d
00000230: 857e ffba 0bba 04be a487 1dbe e448 153d
00000240: b88e 4bbe 8108 bcbe 48fa 65bd f808 23be
00000250: 8943 8dbe 4c84 df3d fe4f eebd 7b64 33be
00000260: 31d7 493e 0425 46be 6862 1cbe 2424 d5bc
00000270: 5668 3abc 0861 f63c f9c9 2e3c 8a90 07be
00000280: 20a1 533e 535f 93bd 50a4 8fbb c452 7f3d
00000290: 06f2 ba3d 987f a43c d536 81bd ea52 0cbe
000002a0: f6db 53be 236b 1abe d6d7 643d 774a e1bd
000002b0: 6b92 323d 76bd b0be f879 0c3e bb1e 17be
000002c0: dc57 45bc 4a1f ee3d fc53 333d fc87 6d3e
000002d0: 0665 fabc b596 7d3d c044 46bd 3f5a 53be
000002e0: 49c3 f23d feea e9be d9e2 94bc cd6c 6d3e
000002f0: 747a 1dbe f06b 893c 0a75 07be 1a1c 113d
00000300: c291 d4be 118c a6be 686d aebe e73b b8bd
00000310: 10a2 273e 08f3 733d babf e13d 9a2d 153d
00000320: d84c 85bd 3553 b8be 340c 93bd 0955 103d
00000330: 56cf 293e a214 a8bd 2c7c 0bbe c261 babd
00000340: 13a6 8dbe 1103 44be e574 5cbe 600e 66be
00000350: c3ea 57bd 6b9f 9fbd 8fa6 f5bd 7fd8 c33c
00000360: fdf3 5e3e 78cc c23e ad1f ef3d ea8a 0f3d
00000370: f24a 303c b034 4bbd 0d4c 953d ffc2 64be
00000380: 45e1 5fbe 9498 46be 04e9 853c 7b2c 9c3d
00000390: af62 88be 5aeb 2a3e 4f2b 6abe a253 a93e
000003a0: 2f8f b0bd 35b4 9d3d 3096 2dbe a192 90bd
000003b0: 6a89 75be 1076 a8bd 7a7e 5e3e 3391 94be
000003c0: aaad e0bc 7a49 8bbc 5a7f c2bd 3e31 b63d
000003d0: 7654 8ebc 2ae2 4c3d c554 843d f37d b7be
000003e0: d55f 0bbd b041 1abc b844 4cbe 0c9d 71be
000003f0: d284 57be 0118 cb3d 097c 18bd 9748 a3bd
0.09322845 -0.29885054 -0.23616607 -0.05404038 0.12425429 -0.13442639 -0.20868248 -0.4490487
-0.01736355 -0.07617424 -0.0057483152 0.3236144 -0.2838002 -0.22567676 -0.06510107 -0.08909247
-0.12504752 -0.29632252 0.09213255 -0.023946896 -0.20026046 -0.13475199 0.19689992 -0.18365479
-0.18931931 -0.18204696 0.11040088 -0.1542673 0.027433408 -0.1317532 -0.24780138 0.038477603
0.10196758 -0.1958853 -0.16535538 0.032384858 0.07271279 0.30295414 0.0101277875 -0.0016659199
-0.22502428 -0.36226603 -0.0276213 0.058745567 -0.051829245 0.051270407 -0.19398509 -0.18975909
-0.31102386 0.10372728 -0.14401193 -0.0067201587 -0.10813866 -0.14109255 -0.12180919 -0.021363124
-0.026149869 -0.15976882 -0.15255632 -0.018543234 -0.12993798 -0.12014908 -0.06914181 -0.13687572
-0.25522134 -0.1871281 -0.11422322 0.16865441 0.2160539 0.039327513 -0.08792493 -0.120322995
0.064501435 -0.4083924 -0.00029236326 -0.10657212 0.2031357 0.13497815 -0.2607865 -0.29394245
-0.21531281 0.058150776 -0.032503795 -0.2765668 0.16736965 0.10836823 0.07591962 -0.12077028
-0.03047037 -0.09035094 0.10562617 -0.32883513 -0.018466592 -0.410339 -0.23396064 -0.25600216
-0.2889037 -0.09680597 0.025624312 -0.04421019 0.088334404 0.046115346 -0.17036076 0.06459045
0.13939221 0.055500653 -0.16974057 -0.10080484 -0.0014600954 0.098728776 -0.25252035 -0.27410194
-0.0636423 0.041430283 0.019109756 0.18430163 -0.34362963 0.12121086 0.032641307 -0.08002826
0.09272129 -0.18219583 0.29165474 -0.060612753 -0.14643608 0.058397256 -0.10984197 -0.010082499
-0.038202506 0.04151456 -0.08262141 -0.056564998 0.032564905 -0.08398453 0.018910693 -0.08617448
-0.41774935 -0.13561878 -0.51618415 0.104302585 -0.0019492662 -0.12961595 -0.15383774 0.036446467
-0.19878662 -0.36725238 -0.05614689 -0.1592139 -0.27590588 0.109139055 -0.11636351 -0.17518799
0.19710995 -0.19350058 -0.15271914 -0.02601821 -0.011377415 0.030075565 0.010668271 -0.13238731
0.20666933 -0.07195916 -0.0043836012 0.06233479 0.091281936 0.020080373 -0.063092865 -0.13703504
-0.20689377 -0.15079932 0.0558699 -0.11000531 0.043596666 -0.34519547 0.13718402 -0.14757816
-0.012044873 0.11627062 0.043781266 0.23196405 -0.03056575 0.061911304 -0.04840541 -0.20639895
0.11853654 -0.45687097 -0.018174576 0.23186035 -0.15378743 0.016775101 -0.1322824 0.03542719
-0.41517454 -0.32528737 -0.34067845 -0.089958005 0.16370416 0.059557945 0.11022897 0.036420442
-0.065087974 -0.36000982 -0.07180062 0.035237346 0.16582999 -0.082070604 -0.13621587 -0.09100677
-0.27665767 -0.19141795 -0.21528967 -0.22466421 -0.05271412 -0.077940784 -0.11994659 0.023906944
0.21772762 0.38046622 0.116759636 0.03504459 0.010760056 -0.049610794 0.07289896 -0.2234001
-0.21863277 -0.19394141 0.016346462 0.076256715 -0.2663779 0.16691342 -0.22868083 0.3307162
-0.0862106 0.077003874 -0.16951823 -0.07059217 -0.239782 -0.08225644 0.21727934 -0.29017028
-0.02742656 -0.01700281 -0.09496947 0.08896111 -0.017374258 0.050020374 0.06461481 -0.3583828
-0.03402694 -0.009415075 -0.19948089 -0.23595065 -0.2104676 0.09916688 -0.037227664 -0.0797283

weight f4 [3, 256]
00000000: 9717 e23b 9b81 06bb c70d 54bc a62c c13d
00000010: 32b8 69bd 3aa8 70bd 59a3 4ebe bc20 1ebc
00000020: ee05 87bb a451 993d 053d 8e3e 3f49 813e
00000030: 925b 54bd 018a 0cbe 4aaa b43c 5326 803e
00000040: fbf1 94bc e975 42bd 7d50 bebd 517d bfbc
00000050: 332b 2f3e a5c5 07be f97e 683d 3c76 ddbd
00000060: 7c1e 9bbe fde4 f63b 951b 593d 4c1b 0cbe
00000070: ab2b c7bd 4f76 43bc 9136 f5be 064e bfbd
00000080: 1715 8b3b 0068 083c e2bf a73c 7c90 953d
00000090: 1a60 0a3e 6810 0fbe 384c 1e3d 8e7b 793d
000000a0: 7a00 043e 7879 e03d b8c3 cb3c 8c66 8a3e
000000b0: 8b39 21bd a809 f7bd 648a 41bc 880b cabb
000000c0: ada5 0dbc 3e45 cf3c 62e3 c33d 9405 ad3b
000000d0: 432d 233e c2b4 75bc a249 a13d 56fd 83bd
000000e0: 92b2 6c3e 51c8 823d 1b91 173e 434e 80bd
000000f0: de87 3c3d fe51 52bd 4cf7 413e 1f50 0fbe
00000100: 4404 4d3d 0489 52bd 23f3 21bd de3e fa3c
00000110: 642b 22be 3200 e5bc b83f 003e 6e9f 42bd
00000120: 7c47 a3bd 514d ab39 722f ef3d 541d bf3d
00000130: 8197 213c 41d7 8cbc 7de7 f9bd a2d1 153a
00000140: 5483 4c3e 1744 643e 1ed6 d23d a013 25bb
00000150: cfb1 7cbc 5144 0ebe e069 2e3e 39d1 27bc
00000160: d1f6 b8bd b014 acbd eb65 01bf cc77 183e
00000170: f4ae f53c f5ad 1f3c a435 743e ee1d 213e
00000180: 4a33 543e 5959 3cbe 17ba 9b3c 26e5 dbbb
00000190: 0a64 64bd d237 edbc 61b5 30bd 68a0 16bd
000001a0: 79c5 d6bd d380 95bd 81d5 8fbd 6ad1 0fbd
000001b0: 932b e6bd 7fb0 1b3e ad44 ce3d 0010 19bb
000001c0: 15be c439 af36 9c3e 4975 26be 5d47 3a3d
000001d0: 53b9 833d 34a7 85bd 52a2 0dbe 66fa 2a3e
000001e0: d170 9ebe e961 32bd 0696 a3bc 4de8 3bbb
000001f0: 5ce5 c23c 48a7 d63e d8bd 5abe f421 373b
00000200: c1f7 cc3c fc9e 293e 4abd abbd 2e21 c83d
00000210: e384 013e b06e 023e 1124 7fbd 43ed e0bd
00000220: 9e69 d8bd b676 8ebe 3d1a 2fbc 0515 983d
00000230: 6b26 9a3c 5286 8abe 5344 333d 2010 583b
00000240: 59bd ed3d 5e89 ffbb f753 6f3c db2b 343e
00000250: 8cd5 193d 3ffd 623d c027 eabc 1c71 babc
00000260: ed3a 863d f32d 1fbd 0b02 d23a f927 0bbe
00000270: 3f69 cebc 7975 bdbd c283 9d3d 3ee5 99bd
00000280: 4d11 933e 483c 8bbd 2dde 91bd 43bf 343b
00000290: 9c9c 6ebe 1bb9 51be 007c b9bd 3fe1 95bd
000002a0: 77dc 95bd 61e3 36be 5511 b2bc 007f c5bd
000002b0: a751 79bd 7264 743d 77c0 3b3e 80f0 053e
000002c0: aae1 a0bd 3940 dbbd 3887 81bc 4c77 77bd
000002d0: a7ad 473e d614 38bd 2efc 6abc 21ee 043d
000002e0: 5344 01be ed95 c43c 51a2 adbc 4a2a f1bc
000002f0: ea2d 813c 9f90 f5bc df41 633d f88d 65bd
00000300: 2d89 fb3d ab17 e2bd b61b 3abd aa3c 793c
00000310: 4a7f 57bd 1a14 cabb 3665 2d3d 37bd 94bb
00000320: 74ce e2bd 5a6b f93d c9ed d5bd 37e8 07be
00000330: 53a1 78bc 26d8 a8be 3e03 0b3d da1f ae3e
00000340: 3c28 7a3d aaf8 473e e288 223e fb10 32be
00000350: d861 45bd cb68 26bd 04e5 33bd 8243 033e
00000360: ecd1 eb3b 4bec 3c3e 5944 343e e095 7b3d
00000370: 676f 3d3a 8773 6b3e 38d7 573e ae23 063e
00000380: 3477 f4be 9a36 dfbd 6fb1 e73c 727e f03c
00000390: a2cd 79ba 59cc 113d 5a22 39be e325 333e
000003a0: 8e71 35bd cf03 fe3d c538 41be 35af 923c
000003b0: ce9f f23b 6ea9 adbd 7ad7 6e3d e0f9 563c
000003c0: 7cb0 c8bd 8bb7 0e3e dd04 86bd 0649 b33c
000003d0: a0b4 e3bd e891 16bd 8beb 1f3d 6fe9 a2bd
000003e0: a9c5 e3bc 4d4d 373e c8dc 2e3c dbcf 59bb
000003f0: ccfc 02be 5700 f73d 5402 e93c 2384 093e
0.006899785 -0.0020524028 -0.012942738 0.09432344 -0.057060428 -0.058754183 -0.201795 -0.009651359
-0.00412058 0.07486275 0.2778093 0.25251195 -0.05184514 -0.1372452 0.022053856 0.2502924
-0.018181792 -0.04747573 -0.09292696 -0.023375185 0.17106323 -0.13258989 0.056761716 -0.10813567
-0.30296695 0.0075346217 0.05300482 -0.13682288 -0.09725126 -0.011930062 -0.47893193 -0.09341054
0.0042444575 0.008325577 0.020477239 0.07302949 0.13513222 -0.13971102 0.038646907 0.060908847
0.12890807 0.10960668 0.0248736 0.27031362 -0.039361518 -0.12062389 -0.01181278 -0.0061659254
-0.008645457 0.025301572 0.09564854 0.005280206 0.15935235 -0.014996709 0.078753725 -0.06444804
0.23114994 0.063858636 0.14801447 -0.06264927 0.04602801 -0.051347725 0.18941993 -0.13995408
0.050052896 -0.0514002 -0.039538514 0.030547556 -0.15836865 -0.027954195 0.12524307 -0.047515325
-0.07972619 0.00032673267 0.11678971 0.09331766 0.0098627815 -0.017192485 -0.12202356 0.00057151366
0.19971973 0.22291599 0.10294746 -0.00251887 -0.015423252 -0.13893248 0.17032576 -0.010242754
-0.090314515 -0.08402383 -0.5054614 0.14889449 0.02999065 0.009746064 0.23848587 0.15734074
0.2072269 -0.18393458 0.019009633 -0.006710666 -0.055759467 -0.028957281 -0.043141726 -0.03677407
-0.10486884 -0.07299962 -0.070231445 -0.035111822 -0.1123878 0.15204047 0.100716926 -0.0023355484
0.00037525655 0.3051047 -0.16255678 0.045478214 0.06431832 -0.06526032 -0.13831452 0.16697082
-0.30945447 -0.043550406 -0.019968998 -0.0028672398 0.023791008 0.419245 -0.21361482 0.0027943822
0.025020482 0.16564554 -0.083857134 0.097719535 0.12648349 0.12737536 -0.062290255 -0.10982754
-0.1056702 -0.27824944 -0.010687408 0.07425884 0.018817147 -0.27055603 0.04376633 0.0032968596
0.11608381 -0.007798358 0.014607421 0.17594855 0.03755717 0.055417296 -0.028583407 -0.022759013
0.06554208 -0.03886218 0.0016022337 -0.13589467 -0.02519667 -0.09250922 0.076911464 -0.075144276
0.28724137 -0.06798607 -0.07122455 0.0027579821 -0.23301929 -0.20480768 -0.09056854 -0.07318353
-0.07317441 -0.17860176 -0.02173678 -0.09643364 -0.060868885 0.059666105 0.18335138 0.13080025
-0.07855542 -0.10705609 -0.015811548 -0.060416505 0.19499837 -0.044941746 -0.014342351 0.03245366
-0.1262372 0.023997271 -0.021195563 -0.02943911 0.015768964 -0.029976187 0.05548274 -0.056043595
0.122820236 -0.110396706 -0.045436583 0.015212217 -0.052611627 -0.006166947 0.04233285 -0.0045391577
-0.11074534 0.12178679 -0.104457445 -0.13272177 -0.015175181 -0.32977408 0.03393864 0.34008676
0.061073527 0.19528452 0.15872529 -0.1738929 -0.048189014 -0.040627282 -0.04391958 0.12818721
0.0071966555 0.18449514 0.17604198 0.06142223 0.0007226378 0.22993289 0.21078193 0.13099548
-0.47747195 -0.10899086 0.02828285 0.029357169 -0.0009529238 0.03559527 -0.1807951 0.17494921
-0.044297747 0.1240307 -0.18869312 0.01790581 0.007404304 -0.08479582 0.058310963 0.013121098
-0.09799287 0.13937204 -0.06543896 0.021885406 -0.11118436 -0.03676024 0.03904299 -0.0795468
-0.027804213 0.17900582 0.010672756 -0.0033235464 -0.12791747 0.12060612 0.028443493 0.13429312

bias f4 [3]
00000000: ae47 45bc 8bca e63c a949 35bd
-0.012041016 0.028172752 -0.0442597
